src/weights.npz (npz, 1298 bytes, 4 tensors)

weights_hidden f8 [6, 3]
0	0xbf8a1c75e4f9ada2	-0.012749596643707065
1	0x3ef6e259522c01be	2.1824050359777038e-05
2	0xbeee79431e5772d3	-1.4530983160670866e-05
3	0xbf63acecc64bc89b	-0.0024017929557596635
4	0xbf3405a72fae3298	-0.00030551273055649244
5	0xbed48ccd8edd3c1c	-4.899504558355239e-06
6	0x3f57f0c121fc3652	0.0014612089216287272
7	0x3f231c36eec97e15	0.00014579935613577623
8	0x3ed5c6045ecc9f40	5.1912079300010555e-06
9	0xbf80fa1998578d0c	-0.00828952785645367
10	0xbf4c0f305f23fe42	-0.0008563028516447929
11	0xbef2eb5926efcb90	-1.8042878249201514e-05
12	0x3f8523da3c1fd7a1	0.010322289428568445
13	0x3f38e7c832aee93a	0.00038002622266798995
14	0x3ee75b30d10d1b0e	1.1137110534809667e-05
15	0x0000000000000000	0.0
16	0x0000000000000000	0.0
17	0x0000000000000000	0.0

bias_hidden f8 [6]
0	0x3f77e718edce1fe0	0.005835626009577738
1	0x3fa187751ac76e76	0.03423658325092742
2	0xbfb131149b4505cb	-0.06715515890848349
3	0x3fb2b025cff54b10	0.0730003006658928
4	0xbfa2972732a36363	-0.036309456759858326
5	0xbfc0f51c0b7cb891	-0.1324801498498727

weights_output f8 [1, 6]
0	0xbfd83c02989d0bcf	-0.37866272834452
1	0xbff182d92042eab2	-1.094445348759717
2	0x3ff94025ecccc856	1.578161168098196
3	0xbffdb8bc6d9553bf	-1.8576015740011227
4	0x3ff0045ef370717d	1.0010671147675503
5	0x4005c7288a6b6f49	2.7222452940021964

bias_output f8 [1]
0	0xbfbbaa2b52012975	-0.1080653262335199
